…
        type='CULane',
        img_path=dataset_path,
        data_list='train_gt.txt',
    ),
    val=dict(
        type='CULane',
        img_path=dataset_path,
        data_list='test.txt',
    ),
    test=dict(
        type='CULane',
        img_path=dataset_path,
        data_list='test.txt',
    )
)


workers = 12
num_classes = 4 + 1
ignore_label = 255
log_interval = 500


2023-02-18 21:26:06,603 - runner.recorder - INFO - the model parameter is : 18.602441M
2023-02-18 21:26:12,551 - runner.recorder - INFO - Network: 
DataParallel(
  (module): HWLane(
    (backbone): Sequential(
      (0): Conv2d(3, 64, kernel_size=(3, 3), stride=(1, 1), padding=(1, 1))
      (1): BatchNorm2d(64, eps=1e-05, momentum=0.1, affine=True, track_running_stats=True)
      (2): ReLU(inplace=True)
      (3): Conv2d(64, 64, kernel_size=(3, 3), stride=(1, 1), padding=(1, 1))
      (4): BatchNorm2d(64, eps=1e-05, momentum=0.1, affine=True, track_running_stats=True)
      (5): ReLU(inplace=True)
      (6): MaxPool2d(kernel_size=2, stride=2, padding=0, dilation=1, ceil_mode=False)
      (7): Conv2d(64, 128, kernel_size=(3, 3), stride=(1, 1), padding=(1, 1))
      (8): BatchNorm2d(128, eps=1e-05, momentum=0.1, affine=True, track_running_stats=True)
      (9): ReLU(inplace=True)
      (10): Conv2d(128, 128, kernel_size=(3, 3), stride=(1, 1), padding=(1, 1))
      (11): BatchNorm2d(128, eps=1e-05, momentum=0.1, affine=True, track_running_stats=True)
      (12): ReLU(inplace=True)
      (13): MaxPool2d(kernel_size=2, stride=2, padding=0, dilation=1, ceil_mode=False)
      (14): Conv2d(128, 256, kernel_size=(3, 3), stride=(1, 1), padding=(1, 1))
      (15): BatchNorm2d(256, eps=1e-05, momentum=0.1, affine=True, track_running_stats=True)
      (16): ReLU(inplace=True)
      (17): Conv2d(256, 256, kernel_size=(3, 3), stride=(1, 1), padding=(1, 1))
      (18): BatchNorm2d(256, eps=1e-05, momentum=0.1, affine=True, track_running_stats=True)
      (19): ReLU(inplace=True)
      (20): Conv2d(256, 256, kernel_size=(3, 3), stride=(1, 1), padding=(1, 1))
      (21): BatchNorm2d(256, eps=1e-05, momentum=0.1, affine=True, track_running_stats=True)
      (22): ReLU(inplace=True)
      (23): MaxPool2d(kernel_size=2, stride=2, padding=0, dilation=1, ceil_mode=False)
      (24): Conv2d(256, 512, kernel_size=(3, 3), stride=(1, 1), padding=(1, 1))
      (25): BatchNorm2d(512, eps=1e-05, momentum=0.1, affine=True, track_running_stats=True)
      (26): ReLU(inplace=True)
      (27): Conv2d(512, 512, kernel_size=(3, 3), stride=(1, 1), padding=(1, 1))
      (28): BatchNorm2d(512, eps=1e-05, momentum=0.1, affine=True, track_running_stats=True)
      (29): ReLU(inplace=True)
      (30): Conv2d(512, 512, kernel_size=(3, 3), stride=(1, 1), padding=(1, 1))
      (31): BatchNorm2d(512, eps=1e-05, momentum=0.1, affine=True, track_running_stats=True)
      (32): ReLU(inplace=True)
      (34): Conv2d(512, 512, kernel_size=(3, 3), stride=(1, 1), padding=(2, 2), dilation=(2, 2))
      (35): BatchNorm2d(512, eps=1e-05, momentum=0.1, affine=True, track_running_stats=True)
      (36): ReLU(inplace=True)
      (37): Conv2d(512, 512, kernel_size=(3, 3), stride=(1, 1), padding=(2, 2), dilation=(2, 2))
      (38): BatchNorm2d(512, eps=1e-05, momentum=0.1, affine=True, track_running_stats=True)
      (39): ReLU(inplace=True)
      (40): Conv2d(512, 512, kernel_size=(3, 3), stride=(1, 1), padding=(2, 2), dilation=(2, 2))
      (41): BatchNorm2d(512, eps=1e-05, momentum=0.1, affine=True, track_running_stats=True)
      (42): ReLU(inplace=True)
    )
    (layer1): Sequential(
      (0): Conv2d(512, 512, kernel_size=(3, 3), stride=(1, 1), padding=(4, 4), dilation=(4, 4), bias=False)
      (1): BatchNorm2d(512, eps=1e-05, momentum=0.1, affine=True, track_running_stats=True)
      (2): ReLU()
      (3): Conv2d(512, 128, kernel_size=(1, 1), stride=(1, 1), bias=False)
      (4): BatchNorm2d(128, eps=1e-05, momentum=0.1, affine=True, track_running_stats=True)
      (5): ReLU()
    )
    (blocks): ModuleList(
      (0): GroupBlock(
        (attnh): HAttention(
          (qkv): Linear(in_features=128, out_features=384, bias=False)
          (attn_drop): Dropout(p=0.1, inplace=False)
          (proj_drop): Dropout(p=0.1, inplace=False)
        )
        (attnw): WAttention(
          (qkv): Linear(in_features=128, out_features=384, bias=False)
          (attn_drop): Dropout(p=0.1, inplace=False)
          (proj_drop): Dropout(p=0.1, inplace=False)
        )
        (mlp1): Conv1x1(
          (conv1): Conv2d(128, 512, kernel_size=(1, 1), stride=(1, 1), bias=False)
          (conv2): Conv2d(512, 128, kernel_size=(1, 1), stride=(1, 1), bias=False)
          (bn1): BatchNorm2d(512, eps=0.001, momentum=0.1, affine=True, track_running_stats=True)
          (bn2): BatchNorm2d(128, eps=0.001, momentum=0.1, affine=True, track_running_stats=True)
          (relu): ReLU()
        )
        (mlp2): Conv1x1(
          (conv1): Conv2d(128, 512, kernel_size=(1, 1), stride=(1, 1), bias=False)
          (conv2): Conv2d(512, 128, kernel_size=(1, 1), stride=(1, 1), bias=False)
          (bn1): BatchNorm2d(512, eps=0.001, momentum=0.1, affine=True, track_running_stats=True)
          (bn2): BatchNorm2d(128, eps=0.001, momentum=0.1, affine=True, track_running_stats=True)
          (relu): ReLU()
        )
        (relu): ReLU()
      )
      (1): GroupBlock(
        (attnh): HAttention(
          (qkv): Linear(in_features=128, out_features=384, bias=False)
          (attn_drop): Dropout(p=0.1, inplace=False)
          (proj_drop): Dropout(p=0.1, inplace=False)
        )
        (attnw): WAttention(
          (qkv): Linear(in_features=128, out_features=384, bias=False)
          (attn_drop): Dropout(p=0.1, inplace=False)
          (proj_drop): Dropout(p=0.1, inplace=False)
        )
        (mlp1): Conv1x1(
          (conv1): Conv2d(128, 512, kernel_size=(1, 1), stride=(1, 1), bias=False)
          (conv2): Conv2d(512, 128, kernel_size=(1, 1), stride=(1, 1), bias=False)
          (bn1): BatchNorm2d(512, eps=0.001, momentum=0.1, affine=True, track_running_stats=True)
          (bn2): BatchNorm2d(128, eps=0.001, momentum=0.1, affine=True, track_running_stats=True)
          (relu): ReLU()
        )
        (mlp2): Conv1x1(
          (conv1): Conv2d(128, 512, kernel_size=(1, 1), stride=(1, 1), bias=False)
          (conv2): Conv2d(512, 128, kernel_size=(1, 1), stride=(1, 1), bias=False)
          (bn1): BatchNorm2d(512, eps=0.001, momentum=0.1, affine=True, track_running_stats=True)
          (bn2): BatchNorm2d(128, eps=0.001, momentum=0.1, affine=True, track_running_stats=True)
          (relu): ReLU()
        )
        (relu): ReLU()
      )
      (2): GroupBlock(
        (attnh): HAttention(
          (qkv): Linear(in_features=128, out_features=384, bias=False)
          (attn_drop): Dropout(p=0.1, inplace=False)
          (proj_drop): Dropout(p=0.1, inplace=False)
        )
        (attnw): WAttention(
          (qkv): Linear(in_features=128, out_features=384, bias=False)
          (attn_drop): Dropout(p=0.1, inplace=False)
          (proj_drop): Dropout(p=0.1, inplace=False)
        )
        (mlp1): Conv1x1(
          (conv1): Conv2d(128, 512, kernel_size=(1, 1), stride=(1, 1), bias=False)
          (conv2): Conv2d(512, 128, kernel_size=(1, 1), stride=(1, 1), bias=False)
          (bn1): BatchNorm2d(512, eps=0.001, momentum=0.1, affine=True, track_running_stats=True)
          (bn2): BatchNorm2d(128, eps=0.001, momentum=0.1, affine=True, track_running_stats=True)
          (relu): ReLU()
        )
        (mlp2): Conv1x1(
          (conv1): Conv2d(128, 512, kernel_size=(1, 1), stride=(1, 1), bias=False)
          (conv2): Conv2d(512, 128, kernel_size=(1, 1), stride=(1, 1), bias=False)
          (bn1): BatchNorm2d(512, eps=0.001, momentum=0.1, affine=True, track_running_stats=True)
          (bn2): BatchNorm2d(128, eps=0.001, momentum=0.1, affine=True, track_running_stats=True)
          (relu): ReLU()
        )
        (relu): ReLU()
      )
      (3): GroupBlock(
        (attnh): HAttention(
          (qkv): Linear(in_features=128, out_features=384, bias=False)
          (attn_drop): Dropout(p=0.1, inplace=False)
          (proj_drop): Dropout(p=0.1, inplace=False)
        )
        (attnw): WAttention(
          (qkv): Linear(in_features=128, out_features=384, bias=False)
          (attn_drop): Dropout(p=0.1, inplace=False)
          (proj_drop): Dropout(p=0.1, inplace=False)
        )
        (mlp1): Conv1x1(
          (conv1): Conv2d(128, 512, kernel_size=(1, 1), stride=(1, 1), bias=False)
          (conv2): Conv2d(512, 128, kernel_size=(1, 1), stride=(1, 1), bias=False)
          (bn1): BatchNorm2d(512, eps=0.001, momentum=0.1, affine=True, track_running_stats=True)
          (bn2): BatchNorm2d(128, eps=0.001, momentum=0.1, affine=True, track_running_stats=True)
          (relu): ReLU()
        )
        (mlp2): Conv1x1(
          (conv1): Conv2d(128, 512, kernel_size=(1, 1), stride=(1, 1), bias=False)
          (conv2): Conv2d(512, 128, kernel_size=(1, 1), stride=(1, 1), bias=False)
          (bn1): BatchNorm2d(512, eps=0.001, momentum=0.1, affine=True, track_running_stats=True)
          (bn2): BatchNorm2d(128, eps=0.001, momentum=0.1, affine=True, track_running_stats=True)
          (relu): ReLU()
        )
        (relu): ReLU()
      )
    )
    (decoder): PlainDecoder(
      (dropout): Dropout2d(p=0.1, inplace=False)
      (conv8): Conv2d(128, 5, kernel_size=(1, 1), stride=(1, 1))
    )
    (heads): ExistHead(
      (dropout): Dropout2d(p=0.1, inplace=False)
      (fc): Linear(in_features=128, out_features=4, bias=True)
    )
    (global_avg_pool): Sequential(
      (0): AdaptiveAvgPool2d(output_size=(1, 1))
    )
  )
)
2023-02-18 22:08:06,133 - runner.evaluator.culane.culane - INFO - summarize result...
2023-02-18 22:14:00,037 - runner.evaluator.culane.culane - INFO - normal: {'tp': '30352', 'fp': '2172', 'fn': '2425\n', 'precision': '0.933219\n', 'recall': '0.926015\n', 'Fmeasure': '0.929603\n'}
…
